…
layers.core.activation.Activation object at 0x7fa5a833b210>]
Model: "model"
__________________________________________________________________________________________________
 Layer (type)                Output Shape                 Param #   Connected to                  
==================================================================================================
 inputs (InputLayer)         [(None, 30781)]              0         []                            
                                                                                                  
 h0 (Diagonal)               (None, 30781)                61562     ['inputs[0][0]']              
                                                                                                  
 dropout_0 (Dropout)         (None, 30781)                0         ['h0[0][0]']                  
                                                                                                  
 h1 (SparseTF)               (None, 146)                  146       ['dropout_0[0][0]']           
                                                                                                  
 dropout_1 (Dropout)         (None, 146)                  0         ['h1[0][0]']                  
                                                                                                  
 h2 (SparseTF)               (None, 26)                   173       ['dropout_1[0][0]']           
                                                                                                  
 o_linear1 (Dense)           (None, 1)                    30782     ['h0[0][0]']                  
                                                                                                  
 o_linear2 (Dense)           (None, 1)                    147       ['h1[0][0]']                  
                                                                                                  
 o_linear3 (Dense)           (None, 1)                    27        ['h2[0][0]']                  
                                                                                                  
 o1 (Activation)             (None, 1)                    0         ['o_linear1[0][0]']           
                                                                                                  
 o2 (Activation)             (None, 1)                    0         ['o_linear2[0][0]']           
                                                                                                  
 o3 (Activation)             (None, 1)                    0         ['o_linear3[0][0]']           
                                                                                                  
==================================================================================================
Total params: 92837 (362.64 KB)
Trainable params: 92837 (362.64 KB)
Non-trainable params: 0 (0.00 Byte)
__________________________________________________________________________________________________
…
